cifar_net.pth (torch, 251391 bytes, 10 tensors)

conv1.weight f4 [6, 3, 5, 5]
00000000: eac6 9a3b a697 013d 5c45 49bd 5af1 a23c
00000010: 0780 15bd 8f3f 38be 4887 0fbe ee76 8cbd
00000020: d8e2 033c af61 d1bd e69b 1abe 7f56 44be
00000030: 953d 2fbe b963 6fbd 5a58 e1bd 0016 3cbe
00000040: fd45 5cbe a137 a3bd 3f89 cabd 2586 febd
00000050: 798d 96be 4d34 a8bd 983b 31be 38f1 5abe
00000060: dd50 4dbe 380e 0bbe 33a2 46bd ee12 0bbe
00000070: bc41 8dbd 70f0 a2bc 5e1d 933d 4fb8 173d
00000080: d988 853d 3692 9fbd 0ae2 fabc 7037 25bd
00000090: 352c 323e 251f a03d fb53 70bd ac89 383c
000000a0: 8548 313d 9a35 0d3d e502 c23d 2974 cbbd
000000b0: cb39 5dbd c374 9cbd 3b19 a33d 5f71 153d
000000c0: eda8 8bbc e5ae 3cbe f6e8 f13d 73ff 023e
000000d0: 17b1 813e 7a9e 213e dff4 883d 377e 643e
000000e0: 31ce a13e 9dcf 983d 9b76 fd3d da39 c5bb
000000f0: 4e3a b23e c211 513e 951f a13e 537f e33d
00000100: d77d 273e 88a6 ad3e 58c9 ba3e ac4d 003e
00000110: 8e7c 613e e666 84bb 19f0 9d3e ab91 6b3e
00000120: a432 873e 2923 5f3e af7a fd3d 8cd4 e639
00000130: d794 a13d 769f e23d b517 5d3c a5ec fc3c
00000140: 7fca 8f3d 763f be3d 2d16 113e 7f07 f73c
00000150: a4fd df3d c400 313e 4f77 fb3d 0d2a 8e3d
00000160: d5e6 213e cc6a a7bc e5ff 7e3e 53ae 753e
00000170: 96e5 2b3d 861f f3ba 0547 6a3e 313d 903d
00000180: 7440 643d 5503 2b3d 897b d03d 5998 2d3c
00000190: e7ca b6bc 11f1 1d3c d317 24bd 17f5 02be
000001a0: 8733 3bbe dfdb ec3c 078e 0bbe 5c5a 5dbe
000001b0: f322 93be 4a84 76be 8084 4ebe 5965 52be
000001c0: 9fde 9cbe 5ddc 70be 3a33 a5be 1a1b 34be
000001d0: 6196 a6be 3277 83be 57db 4ebe ca87 96be
000001e0: f091 89be 8c52 c5be 9e7d aebe 9fac 5cbe
000001f0: 72d3 8bbe 443a 8f3d 5203 003e 72ca d23d
00000200: f08a 273e 6862 9d3d 0630 913e 722f d83d
00000210: 27b4 1e3e 3a4e aa3d c97e 273d 5212 e33d
00000220: 06c2 a9bc 4e11 fdbd 1038 adbd fbf5 a9bc
00000230: 374e 153c a45d eabd 029c 8f3d 12ce 563d
00000240: d92a 833d ac67 313c 6180 3bbd ece6 883c
00000250: e23a 23bd 07ab 313e 1bb7 4abd d6e6 003c
00000260: 83a2 0e3e ad62 703d abe4 b53c 2923 6abb
00000270: 262b 5c3d 3ac8 0c3d 5ab1 043e c227 d13d
00000280: 51ba 953c 86f8 023e 16dc 973d 230b 823d
00000290: db63 2c3d 7645 aa3c 31e7 603e 650c 8d3d
000002a0: 210f 6e3d 1f4b 093d 568f 07be 1c2b 483e
000002b0: 06c1 c83b 10af b93d 2227 663c 98b9 35be
000002c0: 41ba b13c 9d9b e23c e5bd a7bd 84b1 22be
000002d0: 3a73 45be febd 7d3c 1850 9f3d a52e a13c
000002e0: aa17 fdbd a422 45be ae79 c7bd 6f80 c43c
000002f0: 0b39 5fbd ee97 9fbd 0684 7dbe 37c5 d8bd
00000300: dee2 21bd 208e 483c a9b8 3abe aa38 d3bd
00000310: 3231 1bbe 345a 51bc 690c a13c 9555 01be
00000320: 7064 553d b5bd 2e3e c023 543e 6d64 eb3d
00000330: 2f32 b73d e942 063c 82cf c53d 3834 803e
00000340: 90dd 253e b2a1 053e 84ae d4bd d332 2a3e
00000350: 6bcb 503e ac97 993d 11c1 fe3c f9b1 93bd
00000360: a693 073d 9393 3d3e 1a3e e53c 5ce5 a03c
00000370: 3763 bc3d 4ed8 7b3c a1c2 d03d 8207 b93c
00000380: 7dd5 813c c87d 133e 52d1 e53d 68b3 9bbb
00000390: 0bc6 95bd 9195 953d c3ee 423e 9470 e43e
000003a0: 4c11 d73e dd98 be3e ca92 8e3e c826 a4bb
000003b0: d43f 463e aa3a c23e ea59 b63e aab2 d13d
000003c0: c904 69be a689 cdbe 6122 f8be d794 c0be
000003d0: 8e1a b5be e8b4 02be 69dd 8ebe 71f6 82be
000003e0: ca08 3bbe 3240 80be f87b aabd 585f dcbd
000003f0: 08df 2fbe 57e5 58be 564c 3abd 2c8d 62bb
0.0047234194 0.031638764 -0.049138412 0.019890476 -0.03649905 -0.17992996 -0.1401645 -0.068586215
0.008049689 -0.1022371 -0.15098533 -0.1917362 -0.17113335 -0.058444712 -0.1100318 -0.18367767
-0.21511073 -0.07969595 -0.09889459 -0.1242793 -0.2940481 -0.082131006 -0.1730789 -0.2138108
-0.20050378 -0.13579643 -0.04849453 -0.1358144 -0.068973035 -0.01989004 0.07183336 0.037041005
0.06520242 -0.077915594 -0.030625362 -0.040336072 0.17399676 0.0781844 -0.05867384 0.011263292
0.04328205 0.034474947 0.09473208 -0.09934265 -0.054010194 -0.07639458 0.07963797 0.036485072
-0.017048324 -0.18426092 0.11812012 0.12792759 0.2533042 0.1578311 0.066873305 0.22313772
0.31602624 0.07461474 0.12376138 -0.0060188593 0.34810108 0.2041693 0.31469408 0.111082695
0.16356598 0.33916116 0.36481738 0.1252963 0.2202017 -0.0040405868 0.30847242 0.23004787
0.26405823 0.21790756 0.12376916 0.00044027378 0.07889717 0.11065571 0.013494422 0.03087456
0.07021045 0.09289448 0.14168616 0.030154942 0.1093705 0.17285448 0.12278616 0.06941614
0.15810712 -0.020436667 0.24902304 0.2399228 0.041966997 -0.0018548823 0.22878654 0.07042921
0.05572553 0.041751225 0.101798125 0.010595405 -0.022313548 0.009639994 -0.040061783 -0.12788807
-0.18281375 0.028913436 -0.13628398 -0.216165 -0.28737602 -0.24073902 -0.20167732 -0.20546474
-0.30638596 -0.23521562 -0.32265645 -0.17588463 -0.32536605 -0.25676876 -0.20200859 -0.29400474
-0.26869154 -0.3853954 -0.34080213 -0.21550225 -0.27309757 0.06993535 0.12501267 0.1029252
0.16361594 0.07684785 0.2835695 0.105559245 0.1549841 0.08315702 0.040892396 0.11087479
-0.0207224 -0.12356816 -0.08457959 -0.020747175 0.009112886 -0.11443642 0.07012178 0.052442618
0.06404657 0.01082794 -0.04577673 0.016711675 -0.039851077 0.17350398 -0.04949103 0.007867536
0.13929181 0.058687855 0.022203764 -0.0035726523 0.053752087 0.03437064 0.12958279 0.10212661
0.01827732 0.12790117 0.07415025 0.063497804 0.042087417 0.020785075 0.21963193 0.0688713
0.058119897 0.033518907 -0.13238272 0.19547695 0.006126526 0.09066594 0.014047416 -0.1774658
0.021695258 0.027662093 -0.081905164 -0.1588803 -0.19282237 0.015487192 0.077789485 0.019675562
-0.12358029 -0.19251496 -0.097400054 0.023987023 -0.05449776 -0.0779265 -0.24757394 -0.10584491
-0.039522998 0.0122409165 -0.18234505 -0.10313542 -0.15155485 -0.012777854 0.019659238 -0.12630303
0.052097738 0.17064555 0.20716763 0.11493764 0.08945119 0.008194664 0.096587196 0.2503984
0.161978 0.13049963 -0.10384849 0.1662095 0.20390098 0.07499632 0.03109792 -0.0721168
0.033099793 0.18513326 0.027983714 0.019640617 0.09198611 0.015371395 0.101933725 0.022586588
0.01584887 0.1440345 0.11221565 -0.0047516115 -0.07313164 0.07303918 0.19036393 0.4461714
0.42005384 0.37226 0.27846366 -0.005009506 0.19360286 0.37935382 0.35615474 0.102391556
-0.22755732 -0.4014408 -0.4846373 -0.37613556 -0.35371822 -0.12764323 -0.27903298 -0.25578645
-0.18265072 -0.25048977 -0.083244264 -0.10760373 -0.17174923 -0.21181236 -0.045482956 -0.0034569008

conv1.bias f4 [6]
00000000: 2ae7 c93e 3532 99be ae3c 3e3e d8c9 ecbe
00000010: 9977 0ebe e111 97bc
0.39434177 -0.29921117 0.18577835 -0.46247745 -0.1391281 -0.018441143

conv2.weight f4 [16, 6, 5, 5]
00000000: 32cd 24be a53a d4bd 5d3f 333d be56 ec3d
00000010: a7f0 123e 11b3 4bbe 63e6 48be 4d03 0cbd
00000020: 19aa 7d3d 1857 803e 0327 c7bd c163 16be
00000030: 7dd0 53bd 14cd 723d 7c58 533e 03a0 36be
00000040: 27ed 31bd ed15 08be 0b73 333d 70c8 6d3e
00000050: 9819 27bc a197 f0bd b4d9 19bd eaac fd3d
00000060: 535e 4c3e be01 af3d 934a 1dbb 074b d6bd
00000070: e70d 0e3d 34cd 72bd 93f2 303d 64a9 dd3b
00000080: 402f ecbc 2822 cebd 64f1 0abd 353c 0b3e
00000090: 7f66 0d3d 9eab 28bc 8813 8fbd 23c3 ddbb
000000a0: f2e6 013e c57d 8c3d b740 3c3c 2f05 13bd
000000b0: 3f9b edbd e1af b93c 2043 c53d 535f fe3d
000000c0: 5efe a33d a957 753d f029 48be 4268 a6bd
000000d0: 70fa bc3d a3d1 363e 4513 f03c 0c81 8dbe
000000e0: c10e 18be 90dc af3d 0bdd 463e 8796 f03d
000000f0: 1662 54be 46b0 edbd 5b6b 393d f4cd 473e
00000100: a375 233e 95d9 08be 828d 7abe 71ca 3fbe
00000110: 7b22 033e 1449 933e ff35 7fbe 2529 44be
00000120: 4d02 2cbe 6c5f 393c 9c83 213e 56d4 debc
00000130: 7db8 193e 270d c13d 8205 20be f499 09bd
00000140: 9bf9 4ebd 6b03 143e f680 253e 50e4 e63a
00000150: 5375 84be 8510 c0bc 810a 61bd 2975 ee3d
00000160: e021 e63d b356 47be a7ca fdbc 8dfc 04be
00000170: fae6 823b 1802 123d 2ef6 e3bc 3eaa 50bd
00000180: 658b 05be dc77 0f3c 772c c7bd 96fa 373c
00000190: 47ae 25be 02ff 2ebe ebba 523d 9437 033e
000001a0: 25e7 a9bd 3c8e c4bd f63f 44be 51e2 79be
000001b0: 0fd0 093e 36cf 843d 8fab a6bd 3e5b 93bd
000001c0: 0dc9 0fbe a7cf 98bd 8d4b 1b3e 7b53 4bbc
000001d0: c07e 0e3e f28b 873b 1b74 b0bd 57a5 20bd
000001e0: 35c7 6d3d bba0 af3d 13c0 3b3e 303e 8fbc
000001f0: cf3d 8abd 37b5 d0bd 4c33 3cbe e1fd 36bd
00000200: 5519 9b3e cde6 763e e79d 52be f7c1 63be
00000210: 5596 33be 3161 22bb 9035 893e b382 e5bd
00000220: 5565 9dbd 43ae 09be 78e8 04be 5432 fc3d
00000230: 86e0 9dbd df88 bcbd 16d6 053c 4e31 c7bd
00000240: 9ee6 9dbc 502b cbbc 8846 85bd 9dd2 1fbd
00000250: d1e9 94bd 7dc1 993d dc8b 123e 17f0 a73d
00000260: 06fb 093d 947b 983d 2459 b8bd c977 7d3e
00000270: dfee b93d a280 093d fecd 82ba a375 42bd
00000280: 9df8 5a3e b09e af3d cddc 82bb 4827 d1bd
00000290: f73a f0bd 6d8c 5e3e de2e 803d 2f73 c7bd
000002a0: 5d4e 07be 3537 1abe 4e50 4b3e 76f1 8b3d
000002b0: 6076 1d3d 2f78 d5bd 7606 38be 040e bd3d
000002c0: f4e0 11bd 541b b83c ec7c f03d 4661 3f3d
000002d0: 2957 8c3d 955e 2f3d 59ee 553d 1fe0 923c
000002e0: 6d44 2c3d 3bee d4bb bf55 d23d 4d16 953b
000002f0: 4d22 603d c65d 99bd 3cec 1dbd f4ce ff3c
00000300: 8d7c c9bc 5ad6 49bc 78fb f8bd 3440 afbd
00000310: b1a8 98bd b4b4 2c3c 9a36 61bc 6b62 28be
00000320: 6be2 86bd 145f 18be 7ccb cebd 125f e5bd
00000330: fb6d 19be d7d3 f9bc 8f3e 703d b1ae bcbd
00000340: a61b 1ebd 1cf3 2ebe 7dfc 81bd c01a 643c
00000350: c945 d03b c6b1 08be a526 17be 4d36 4abc
00000360: 86ee 8dbd c8f3 11be 7660 e0bd 7aa7 52bd
00000370: c351 bbbd 8500 8fbd 08c5 d2bd 0170 e8bd
00000380: 7d59 623d 9e68 a63d 854a 973c c55d a43c
00000390: c190 563e f61d 043e e05a 7bbb 021e a83d
000003a0: dcfe 983d 0789 0e3e 74a0 523c 9a11 aa3c
000003b0: 20e1 263e a898 313e 5aa1 953d 2d35 18be
000003c0: f005 2cbd a738 8b3c 75a1 cc3d 1ea6 443e
000003d0: 47e4 303d 6df0 5b3d 8801 50bd 0b47 133d
000003e0: 272e f6bc fc00 033d 1952 3d3e fd5b 2abd
000003f0: 6bcc fcbd 5048 03be 55ba c73d ebc2 16be
-0.16093901 -0.10362748 0.0437616 0.11539982 0.14349614 -0.19892527 -0.19619136 -0.034182835
0.061929796 0.25066447 -0.09724238 -0.1468649 -0.0517125 0.05927761 0.20639223 -0.17834477
-0.043439057 -0.13289614 0.043810885 0.23220992 -0.010198973 -0.11747671 -0.037561134 0.12386496
0.19957857 0.08545254 -0.0024000749 -0.10463529 0.034681227 -0.05927773 0.043200087 0.0067645777
-0.028831124 -0.100651085 -0.033921614 0.13597186 0.034521576 -0.010294823 -0.06986147 -0.006767647
0.12685755 0.06859926 0.011490039 -0.035893615 -0.116018765 0.022666873 0.09631944 0.124205254
0.08007501 0.059898052 -0.19547248 -0.08125354 0.09227455 0.17853408 0.029306063 -0.27637517
-0.14849378 0.08586991 0.19420259 0.11747461 -0.20740542 -0.11605887 0.045268398 0.19512159
0.15962844 -0.13364251 -0.24468043 -0.18729569 0.12806122 0.28766692 -0.24922942 -0.1915632
-0.16797753 0.011314254 0.15772861 -0.027200859 0.15011783 0.09426337 -0.15627101 -0.033594087
-0.05053101 0.14454429 0.16162476 0.001761565 -0.2587076 -0.023445377 -0.054941658 0.1164344
0.1123693 -0.19466667 -0.030980421 -0.12986965 0.0039948197 0.035646528 -0.027827349 -0.050943606
-0.13041456 0.008756604 -0.09725278 0.011229178 -0.16179763 -0.17089465 0.05144779 0.1281417
-0.082960404 -0.095974416 -0.19165024 -0.24402739 0.13458274 0.06484835 -0.08138191 -0.071951374
-0.14041539 -0.074614815 0.15165539 -0.01241004 0.13915539 0.004136556 -0.08615895 -0.03922018
0.058051307 0.08575579 0.18334989 -0.017485708 -0.0675007 -0.10190814 -0.18378943 -0.04467571
0.30292764 0.24111481 -0.20568047 -0.2224196 -0.17537816 -0.002477717 0.26798677 -0.112065695
-0.07685343 -0.13445382 -0.12979305 0.12314287 -0.0770884 -0.092057936 0.008168718 -0.09726201
-0.019275006 -0.024800926 -0.065075934 -0.039019216 -0.072711594 0.07507608 0.14311165 0.082000904
0.03368666 0.07445446 -0.09001377 0.24752726 0.09078764 0.03356994 -0.0009979603 -0.04747547
0.21383901 0.08575189 -0.0039936067 -0.102125704 -0.11729997 0.21733256 0.06258939 -0.097387664
-0.13213487 -0.15060122 0.19854853 0.068331644 0.03844297 -0.10423314 -0.17971215 0.09231189
-0.035614923 0.022473969 0.11742577 0.046723627 0.06852562 0.04281481 0.05222926 0.017929135
0.042057443 -0.006498126 0.10270261 0.0045497776 0.05472021 -0.07488589 -0.03855537 0.031226613
-0.024595523 -0.012319172 -0.12157339 -0.08557168 -0.0745405 0.01054113 -0.013745928 -0.16443793
-0.065861546 -0.1488002 -0.10097405 -0.11199774 -0.1498336 -0.03049652 0.05865341 -0.09213007
-0.038600586 -0.17084926 -0.063469864 0.013922393 0.0063559753 -0.13349065 -0.14760835 -0.012342048
-0.0693026 -0.14253151 -0.109558985 -0.05142925 -0.09146454 -0.06982521 -0.10291487 -0.11349488
0.055261124 0.08125423 0.01846815 0.020064244 0.20953657 0.12902054 -0.0038353726 0.082088485
0.074704856 0.1391946 0.012855638 0.020760346 0.16296816 0.1734339 0.07306166 -0.14864035
-0.04199785 0.016994787 0.09991733 0.19203994 0.043186452 0.053696085 -0.05078271 0.035956424
-0.030051304 0.03198336 0.18488349 -0.041591633 -0.12343677 -0.12820554 0.09752337 -0.14722793

conv2.bias f4 [16]
00000000: 22fe 64be 1434 8fbe ea47 5e3e b085 3abf
00000010: 3b17 a3be 38b5 94be 32d4 413f 1de5 5d3d
00000020: 2f78 5b3f 0e26 35be 321e 823d 5f35 7d3e
00000030: efd3 40be c235 213f ae01 2a3e 8ad9 2abe
-0.22362569 -0.2796942 0.2170712 -0.7286024 -0.3185366 -0.2904451 0.7571441 0.054173578
0.8573026 -0.17690298 0.063534155 0.2472739 -0.18830846 0.6297265 0.16602203 -0.16684547

fc1.weight f4 [120, 400]
00000000: 94e2 093c 1cac bb3c f318 d7bc 66cc f83c
00000010: a33b 08bd 41c9 72bc 63f5 c33b 660e ebbc
00000020: 2fc0 98bb 3107 33bb fab7 3a3d 95b2 09bb
00000030: 70a8 243d f1b5 0d3d 04b8 1fbd 5e46 6e3d
00000040: 8911 2dbd 9872 613c fcd3 e93c 5d3a 75ba
00000050: 8f93 863c d4ec 793c 74c1 213d 1270 923c
00000060: 1a31 7d3c 0f6e 46bd 3b0a f43c 5728 2abc
00000070: 3e11 9bbc 4512 b4bc e09f 38bd 8650 50bc
00000080: b063 0f3d f6d0 173d bf67 973c 490f ce3c
00000090: 3a62 a2bc 9049 ac3b e499 d3bc d0dd 9e3c
000000a0: ef97 c2bc 60da 023d bf2a 9c3c 55ef b5bc
000000b0: 5b1e 91bc a48c 1fbd 2927 c63c 9792 c23c
000000c0: e3a2 3bbd bd16 fdbc bc22 ea3c a987 61bc
000000d0: 6f23 29bb fa55 f83c 0225 3bbd 8282 073c
000000e0: ee96 e2b9 3b37 b2bc 7fb1 3ebd 11fa 213c
000000f0: 771b 9dbc 14a3 6bba da3d 04bd 94d2 d3bb
00000100: 9ab0 113d 5306 c6bc 6fe3 b7bc 468a 15bd
00000110: 8047 e13b 8a98 193d 69f1 fcbc 22f7 ae3c
00000120: 6c92 28bd f7c0 2abc 4f3b e3bc 4a04 bebc
00000130: a8dc 09bd 4828 a8bc 3c04 823a 5ba3 d73c
00000140: b64d 5f3d 9319 8abb 3fab 943b 6772 1dbd
00000150: 0b6f fbbc 6f8b aa3b 35c6 bdbc 67da 493d
00000160: 9b98 afbb c860 d3bc 6ae0 51bd b2f5 3a3d
00000170: 1687 893b c7eb 14bd 2715 88bb 2ff9 083c
00000180: 7fb7 b6bc 87fa 96bc c442 afbc 0f15 1cbd
00000190: bb8e e9bc 5aa8 c53c 817b 43bd d9d0 813b
000001a0: cc5d 623c 2ba3 82bc f982 f83c 842f 693d
000001b0: e0f0 d5b9 4c9c 4bbd f125 413d 3b32 cabb
000001c0: 4b1c 0fbd a3e6 213d 2855 55ba 9eba eebb
000001d0: 884c 623c eea5 263d 8dfb 123d 8e2e d43c
000001e0: bf40 363d 9ae4 c43b 6aeb f63c c6d8 fabb
000001f0: 46b6 aebc 88ee 14bd 81d4 01bd c138 ee3c
00000200: 2531 d73c 701f 2d3d 2739 5a3d b6a4 90bc
00000210: c257 593d bafb 51bd 2290 533c c9a8 573c
00000220: 7556 113d 7e24 b23c fbc2 fd3b b9fd ec3c
00000230: 0a2c 0e3d c849 86bc 8044 2c3d ef12 853b
00000240: 2ae6 603d 7a56 653d c53d 14bd 9ba9 533d
00000250: 93c1 22bc c0f8 2dbc 379a 163d 1a41 d1bc
00000260: 6e5a 86bc b270 d4bc de02 2a3d e0b1 3abc
00000270: 9210 f2bc 3f3d 56bc 99c4 f5b9 814c 14bc
00000280: 2b4e e93a c04a a23c 799e fdbb 6380 1bbd
00000290: 6a5f b83b f9e1 d4bb 0c89 59bc 982d 12bd
000002a0: aa1e 3f3d a273 05bd 99da 97bb abe7 d03c
000002b0: 39fe 42bb 9bd8 fc3c a4b8 c8bb 9e70 3e3d
000002c0: 5690 66bc 0af5 85bc b555 18bd ca13 9cbc
000002d0: 2ddd 143c ad60 643d 80a1 aabc 9b27 45bd
000002e0: 21ba ed3b baca 563c bdbd 723d 5da8 b5bc
000002f0: 2c0a 1a3d 14fa 263d d995 8b38 39d5 dd3c
00000300: 2a75 1b3b c108 033b 4b1c 013c f3ae 59bc
00000310: cc32 123d a66a 8ebc 5d26 45bd 9bff a33b
00000320: 1e21 bc3b 0ea0 4e3c 28a3 2dbc 5184 47bd
00000330: 33fd b23c 75f0 f53c 743b d43b 6c39 4abd
00000340: 73ae 4e3c 779b 2abd e7af de3c 8895 3fbc
00000350: 8579 17bb 84c0 66bc 411c 203d 09ab 663c
00000360: 2932 b83c 7afb 2a3c c806 bebc b56f d1bc
00000370: 01ec 15bb 1479 00bd 1bc4 13bd f754 1abd
00000380: eda8 183d 1664 d23c 352d 0b3d 6861 d7bc
00000390: 337d 03bd fb36 52bd 006c b5bc 5e3a 7fbc
000003a0: c499 9ebb f27d 1bbd dd7f 103d 2f71 0e3c
000003b0: 9413 52bc 9092 333d 73db cdbc f98a 0cbd
000003c0: 412e 0fbd bd93 f53b f62f c4bc f86f 01bd
000003d0: 0675 2cbd 6ddb 963c ec4b db3c f6b7 143d
000003e0: e932 02bd 07e5 debc cb75 47bb 06df aabc
000003f0: 65e0 99bc 19ca 01bd 0a6a 51bc d53c aabc
0.008415837 0.022909217 -0.026257014 0.030370902 -0.03326 -0.0148184905 0.00598018 -0.02869339
-0.004661582 -0.0027317519 0.04558561 -0.0021010984 0.040199697 0.03459734 -0.03899385 0.058172576
-0.04225305 0.013760231 0.028543465 -0.0009354705 0.016427783 0.015254218 0.039491132 0.017875705
0.015453601 -0.048444804 0.029790035 -0.010385594 -0.01892912 -0.021981368 -0.045074344 -0.012714511
0.03500718 0.037064515 0.018482087 0.025153773 -0.019822229 0.005257793 -0.025830217 0.019392878
-0.023754088 0.03194654 0.019063352 -0.022208849 -0.01771467 -0.038952485 0.024188595 0.02375154
-0.045809638 -0.030894632 0.028581016 -0.013765254 -0.0025808474 0.030314434 -0.04568959 0.008270862
-0.0004321853 -0.021754852 -0.046555992 0.009886281 -0.019178135 -0.0008988839 -0.03228555 -0.006464312
0.03556881 -0.024172937 -0.022447316 -0.03650882 0.0068749785 0.03749899 -0.030876832 0.021358076
-0.041155264 -0.010421983 -0.027738241 -0.023195405 -0.0336577 -0.02052702 0.0009919475 0.026323011
0.05451747 -0.0042144745 0.0045370157 -0.03843918 -0.030692598 0.00520461 -0.023165802 0.04928055
-0.005358768 -0.025802985 -0.05123941 0.04564447 0.0041970117 -0.036357667 -0.004152912 0.008360191
-0.022304295 -0.018430008 -0.021394141 -0.03810602 -0.028510442 0.024128128 -0.047725204 0.003961664
0.013816308 -0.015946945 0.03033589 0.05693008 -0.00040805992 -0.049709603 0.047155324 -0.0061705387
-0.03493909 0.039526593 -0.00081379944 -0.00728543 0.013812192 0.040685587 0.03588443 0.025901105
0.04449534 0.0060086967 0.030141551 -0.007655236 -0.02132715 -0.036360294 -0.0316968 0.029079797
0.026268551 0.04226631 0.05327716 -0.017656665 0.053062208 -0.051265456 0.012912782 0.0131628
0.035482842 0.021745916 0.0077441907 0.028929578 0.034709968 -0.016392604 0.042057514 0.004061095
0.054907 0.055990674 -0.03619172 0.05167542 -0.009933847 -0.010618389 0.036768164 -0.025543738
-0.016400542 -0.025932644 0.04150664 -0.011394948 -0.029548917 -0.013076126 -0.00046876518 -0.009051443
0.0017799785 0.019811034 -0.0077398387 -0.037964236 0.0056266086 -0.0064966646 -0.013277303 -0.035688013
0.046660103 -0.03258098 -0.004634213 0.025501093 -0.002975358 0.030865004 -0.0061255265 0.04649412
-0.014072498 -0.016352195 -0.03719111 -0.019052405 0.009085936 0.05575626 -0.020828962 -0.048133474
0.0072548543 0.013109857 0.05926298 -0.022175008 0.037607357 0.040765837 6.655948e-05 0.027079212
0.0023720958 0.0019994231 0.007880281 -0.01328634 0.035692975 -0.017384838 -0.04813229 0.005004836
0.0057412526 0.012611402 -0.0105979815 -0.04871017 0.02184925 0.030021885 0.006476814 -0.049371168
0.012614834 -0.04165217 0.027183486 -0.011693366 -0.0023113203 -0.014083985 0.039089445 0.014078864
0.022484856 0.010435933 -0.023196593 -0.025565961 -0.0022876265 -0.03136547 -0.036075693 -0.037678685
0.037270475 0.02568249 0.03397866 -0.026291564 -0.03210182 -0.051321965 -0.022146225 -0.015577881
-0.0048401076 -0.037961908 0.03527819 0.008693977 -0.012822051 0.043840945 -0.025129056 -0.034312222
-0.03495622 0.0074944184 -0.02394865 -0.031600922 -0.04210379 0.018415177 0.0267696 0.03630825
-0.031786833 -0.027208818 -0.00304352 -0.020858299 -0.018783757 -0.031686876 -0.012781629 -0.02078096

fc1.bias f4 [120]
00000000: 3773 4b3c f1ee eb3c ac4e 7f3c bf1d 093e
00000010: 7c98 5cbe 8693 783d 3f7a 06bc 1bde 733c
00000020: 6a0b 7b3e 0372 47bd d8f0 eb3d 6281 c03b
00000030: a284 103d 2dd3 673d 5383 673b 1128 dcbc
00000040: c6aa 223d d16c 4fbd f770 40bd 0c1c c33d
00000050: 9cb6 fc3c 0410 12bc 6b93 273d bb40 b3bd
00000060: b4d8 25bc 7c44 64be 94e5 40bd eca7 473d
00000070: 166a 0a3d 68c9 bfbd 8526 093d e6d1 093d
00000080: 3108 203c 55e6 5b3d 3b1d 5d3b 9075 8e3d
00000090: d1f2 303c 6a1e 003e f8cd 4abd a397 2cbb
000000a0: 7305 87bd dac7 c93d 0b77 4f3e a344 e03c
000000b0: 357d 4bbc 641f 683c d3c1 473d b689 3abd
000000c0: 0124 81bd aec5 be3d 0d7f cabc 798b 05bd
000000d0: f079 25bd 664f 0bbe 2db5 49bd 78b5 02bd
000000e0: ba55 7abd 06d4 f1bc 93d0 9c3d 76f1 22bd
000000f0: c026 863d 6449 f13c 3321 253d 9d01 cdbd
00000100: 6b47 babd d707 3bbd a294 7fbc b69d ae3d
00000110: 208d 9ebd 7258 073d 33e8 703d fa90 2a3d
00000120: b621 0e3e f75a 713e 9f79 04bd 9aac 953d
00000130: d271 c8ba e559 0e3e c6fa 87bc 7dd5 b43b
00000140: f0bf 073e 8fd3 fd3c 172e 063e f2e8 09bb
00000150: b9f6 2c3e bdef 82bc f984 c1bd 44e0 af3c
00000160: 5d8a 1a3c 2036 37bd b078 6b3e 077e 863d
00000170: 4847 b63d 6670 573e a2ba 9bbc b217 113d
00000180: 3415 cb3b 7872 07bd 9d11 e73c dee0 57bd
00000190: c4eb bf3d 24a6 96bd fcbb 363e f4ae 86bc
000001a0: ad86 3b3d 1d17 0fbe ab78 693e 460a d43d
000001b0: af13 283d 4f6a 513c a8f2 2b3d b2ca 813d
000001c0: ea08 41bd ebc1 48bd b86c 77bd b669 50bd
000001d0: 3de6 23be c60d 093e 684a 903c 1ccf 13bd
0.012417606 0.02880046 0.015582722 0.13390253 -0.21542543 0.060687564 -0.008207857 0.014884497
0.24516073 -0.048692714 0.11520547 0.0058747986 0.03528274 0.056597877 0.0035326078 -0.026874574
0.039713643 -0.050640885 -0.04698273 0.09526834 0.030848794 -0.008914951 0.040912073 -0.08752581
-0.010122467 -0.2229175 -0.047093943 0.048744127 0.033792578 -0.09364587 0.033484 0.03364744
0.009767578 0.05368646 0.0033739347 0.06956017 0.010800079 0.12511602 -0.049512833 -0.00263355
-0.06592836 0.09852572 0.20260255 0.027376479 -0.012419988 0.01416764 0.04876883 -0.045541488
-0.06305695 0.09315048 -0.024718786 -0.032603715 -0.04039949 -0.13604507 -0.04924505 -0.031911343
-0.06111691 -0.029520046 0.0765697 -0.039781056 0.0655036 0.02945394 0.040314864 -0.10010073
-0.09095653 -0.045661774 -0.015599402 0.08526175 -0.07741761 0.033043332 0.058815192 0.041642167
0.13880047 0.23569857 -0.03234255 0.07308312 -0.001529271 0.1390148 -0.01659907 0.005518614
0.13256812 0.030984668 0.1310352 -0.0021043387 0.16890992 -0.015983457 -0.09449191 0.021469243
0.009432402 -0.044729352 0.22995257 0.065670066 0.089003146 0.2103897 -0.019009892 0.03542299
0.006197596 -0.03306815 0.02820664 -0.052704684 0.093711406 -0.073559076 0.17845148 -0.016440846
0.045782734 -0.13973661 0.22799937 0.10353522 0.041034397 0.012781694 0.041979462 0.06337489
-0.04712764 -0.04901306 -0.060406417 -0.050882064 -0.16005798 0.1338416 0.017613605 -0.036086187

fc2.weight f4 [84, 120]
00000000: f1fe 69bd 643a 0abe 1a10 913c 79d1 e63c
00000010: b60d 76bd afb3 6c3c e548 12b8 dbf2 953d
00000020: 1aaf 573c 8882 053d 7545 9ebd fb51 ab3d
00000030: 9eae 8dbd 8182 013d 35c5 0abc eaf5 98bd
00000040: d3e8 d6bd 2884 48bd 25fd 65bd 0be7 de3d
00000050: ddd5 5f3d 1990 873d 76d3 a9bd 7de9 cebd
00000060: ed0c 153d 528c cabb 11ef 10bd 77f3 f03d
00000070: 2825 0d3d 6d58 eabd 9827 b5bd 0fcb ac3d
00000080: 58aa 93bd 9015 e33a 9725 66bd 705c b4bc
00000090: 02f7 4abd 22ac b1bc 622c a2bd 04a6 083d
000000a0: ae75 363d 199f 9f3c 669a 423c b1f8 cf3c
000000b0: 28db d63c f584 cc3c 8226 45bc 49a5 aabd
000000c0: e979 01bd 1dcd 6abc 41c1 52bd cae1 c4bc
000000d0: efb6 53bd 561b 13bc 3448 91bd b9b1 fa3c
000000e0: 6560 ebbb 04c3 c7bd 40c7 e6bc f5e4 3d3d
000000f0: 39b8 b03d 7884 ba3c 64dc ae3c aa29 a8bd
00000100: fd6e 12bb 5df9 a1bc e0e8 a5bd ad89 0c3d
00000110: 90ad 913d 003c de3d 378c 32bd 3e34 85bd
00000120: 37f6 aebd 1c2e 33bc b919 1c3c 26f9 0cbc
00000130: c6d9 4fbc e90b 023d 4045 ab3a 7dfc 83bd
00000140: 0880 e4bd dcfa a03b b511 0c3e b936 a23d
00000150: 94cf 1e3c 69ba 9abd 5667 82bd d787 bbbc
00000160: 778d 113d f7e6 81bd 0296 ec3c f1f7 ba3d
00000170: c441 44ba 566a eabc 0c1c a3bd f71b 22bd
00000180: 0952 a9ba 06f6 803c fb9d 963c e168 25bd
00000190: 9392 893d 0ae5 2e3b 207b 193d c043 23bc
000001a0: 38db 623d ba31 17bd 2ea2 98bd eb73 2f3c
000001b0: be1b f93d d06b ccbc cbd9 aabd db34 063d
000001c0: 6257 e4bb d25c 793d 14fc 893d 816e 88bd
000001d0: f300 aabd 9c9d 0f3d 03cb 9ebd 1b63 9abd
000001e0: 6bb1 b83d e846 b6bc 5a50 89bc 6eff ac3c
000001f0: 89ff a8bb 4432 b33c 00fd d5bd 6efe 46bd
00000200: a50d 45bd a6c7 913d e660 e3bc a598 aebd
00000210: 515a 993d 4d11 2f3d e37d 0d3c 0061 30bd
00000220: d62c 5c3d f6cf 1a3c 45fc 57bd 7647 b63c
00000230: 6f34 35bd 267c 22bd 246d 103c 7b3b a23a
00000240: 1815 12bd d6f7 ecbc c510 12bd 8313 e03c
00000250: b217 8f3c 1871 4d3d a8fa 713d 5a9e 84bc
00000260: 5513 43bd a668 fa3d 62cc 2fbd ff97 4d3d
00000270: 6808 a639 732a 33bc 9ef7 a23d 90fb 14bd
00000280: 9907 bdbd 9a5a ef3d ef1d 083d 6d75 b33d
00000290: 5b5b 893d d595 30bd c947 31bd 0295 863d
000002a0: eb8c e5bd 95dc 67bd 085c 1b3d 0876 9d3d
000002b0: cf10 06bd a827 62bd 7c5f 6f3c d85f b93c
000002c0: 827e 07be a9c7 3d3c 2d03 d63b ffd3 edbc
000002d0: 4185 2abd 7d36 f8bc d38b d13d dd4d abbd
000002e0: 3877 1e3b fa41 1cbd e4bb 1cbd cdb9 d73d
000002f0: 36f5 1f3d 2675 10bd 1314 4b3c 732a 27bd
00000300: d3ca b93b a811 f9bc 343a 603d 2785 c73b
00000310: f916 c0bd 2872 0bbd 993f ff3d c993 92bd
00000320: 2100 123d 8741 8cbc db98 2dbd 5e64 a93d
00000330: a7d2 59bd 7d5f 5d3d be4e 5a3c b746 b4bd
00000340: e9a7 3cbb 3a05 72bd 68c0 0ebd 4b70 74bd
00000350: 25b3 61bd a40a 03be 9507 d3bb 2ce7 013e
00000360: e042 e33d 4950 79bd 42d8 1a3d 80c6 eebc
00000370: 4004 133d a348 3c3d 1ca5 af3c c4ea 77bd
00000380: 35eb 24bd c5b7 6dbd b34e c9bd a6e3 8bbc
00000390: 575f 0abd 9bf8 113d 8bdc cabb 60a9 313d
000003a0: 932a af3d e433 77bd 6852 25bd a677 f73c
000003b0: 0ab5 9d3d 6ca4 b5bd beb6 babc 3734 64bc
000003c0: a869 c9bc d294 98bd 8818 3d3b 3c47 71bd
000003d0: 49e9 7f3c 1be0 353d 2115 c3bc d2c3 393d
000003e0: 4785 bfbd 35ba 06ba fe27 f6bd 156e 05bd
000003f0: ccea 73bd 020e af3c 870d 9dbd 3bd5 eab9
-0.057127897 -0.13498837 0.017707873 0.028176056 -0.06007167 0.014447137 -3.4877e-05 0.07321712
0.013164306 0.032595187 -0.077280916 0.08365246 -0.06918071 0.0316186 -0.008469869 -0.074687794
-0.104936264 -0.04895416 -0.05614962 0.10883912 0.054647315 0.06619281 -0.08292286 -0.10103128
0.03638928 -0.0061812783 -0.03538424 0.11765187 0.034459263 -0.11442647 -0.088454425 0.08437168
-0.07210225 0.0017325152 -0.056188192 -0.022016734 -0.04955197 -0.021688525 -0.079186216 0.03336145
0.04454582 0.019485043 0.011877632 0.02538714 0.026227549 0.024965743 -0.012033107 -0.08332307
-0.031610403 -0.014331129 -0.051453833 -0.024033446 -0.05168813 -0.008978685 -0.0709385 0.030602323
-0.007183122 -0.09753993 -0.028171182 0.04636093 0.08628888 0.022768244 0.021345325 -0.08211072
-0.0022343986 -0.019772226 -0.08101058 0.034310985 0.071131825 0.10851288 -0.04359075 -0.06504105
-0.085430555 -0.010936286 0.009527617 -0.0086043235 -0.012686199 0.03174964 0.0013066903 -0.06444643
-0.111572325 0.0049127173 0.1367863 0.07920594 0.009693045 -0.07555086 -0.06367366 -0.022891922
0.035535302 -0.06342881 0.028880123 0.09129322 -0.00074866065 -0.028615158 -0.07964334 -0.03957745
-0.0012918125 0.015742313 0.018385878 -0.040383223 0.0671741 0.002668681 0.037470937 -0.009964883
0.055384845 -0.036912657 -0.07452808 0.010708789 0.121634945 -0.024953753 -0.08342322 0.03276525
-0.0069684247 0.060879536 0.06737533 -0.06661702 -0.08300962 0.035062417 -0.07753565 -0.07538434
0.09018215 -0.022250608 -0.016761947 0.021117892 -0.0051574153 0.021874554 -0.104486465 -0.048582487
-0.048108716 0.07118158 -0.027756166 -0.085252084 0.074879296 0.04274111 0.008635971 -0.043061256
0.053753696 0.009448996 -0.052730817 0.022250872 -0.044239458 -0.03966918 0.008815084 0.0012377346
-0.035664648 -0.028926771 -0.035660524 0.027353054 0.017467353 0.050156683 0.059076935 -0.01618879
-0.04762586 0.12226991 -0.042919524 0.050193783 0.0003166825 -0.010935414 0.079573855 -0.03637272
-0.09229965 0.11687203 0.033231672 0.087626316 0.06706878 -0.04311164 -0.04328135 0.0657139
-0.112085186 -0.056606848 0.037929565 0.07688528 -0.032730874 -0.0552136 0.014610168 0.02262871
-0.13231853 0.011583247 0.0065311403 -0.029031752 -0.041630987 -0.03029942 0.102317475 -0.083644606
0.0024179947 -0.038148858 -0.038265124 0.105334856 0.03905221 -0.03526797 0.012394923 -0.040811967
0.0056699305 -0.030403927 0.054743007 0.006088871 -0.09379382 -0.034044415 0.12463302 -0.07157094
0.035644654 -0.01712109 -0.042382102 0.08271097 -0.05317941 0.054046143 0.013324438 -0.0880255
-0.0028786606 -0.059087016 -0.03485146 -0.059677403 -0.055102486 -0.12797028 -0.006440113 0.12685841
0.1109674 -0.06086758 0.037803896 -0.029147387 0.035892725 0.04596771 0.021441035 -0.060526624
-0.040263373 -0.058036584 -0.09829464 -0.017076325 -0.03378233 0.03563748 -0.0061908416 0.04337442
0.08553042 -0.06035222 -0.04036179 0.03020842 0.07700546 -0.088692516 -0.022792216 -0.013928465
-0.024586514 -0.0745026 0.0028853733 -0.058905825 0.015619584 0.044403177 -0.023813786 0.045352764
-0.093515925 -0.00051394413 -0.12019347 -0.032575686 -0.05955009 0.021368984 -0.07668596 -0.00044790827

fc2.bias f4 [84]
00000000: 00c2 e4bd 9d5d 70bc 6d2f 14be 20e9 0a3c
00000010: 946a 593c 9cf8 333e e910 f73d be01 48bd
00000020: e2f9 813e cee8 e3bd d5c6 513e f818 91bd
00000030: d8ba 60bc 16ec a53c 2b38 f13d 7aa8 3b3c
00000040: 2cd0 a9bc fded 973d ac8f a43d 313e e23c
00000050: 7d02 083e 9ae2 52bd e461 1cbe a53d b0bc
00000060: e88b 023d 0f15 ae3b 1a67 48bd 3431 9b3d
00000070: f550 0abd f949 a7bd 1355 163f a364 893d
00000080: dd71 bb3e 0ea5 553e 8628 36bd 6a2a 26bd
00000090: 7b53 883e f6e1 013d 999c 963d 7137 31be
000000a0: 0c6e 2f3d 836a ef3d 04dc 32bd f906 d13e
000000b0: 6af9 3f3c 70de 5b3d ff48 bcbd db6b 1ebe
000000c0: c7df 613c 28c6 503e 8be5 3cbd 6642 fa3c
000000d0: 204b c5bc 4495 0fbd b9fa a6bd 66f8 76bd
000000e0: 596b 023e e71a 6c3d c81e 283e 9981 723d
000000f0: 8cf6 fe3d 0422 813e 5519 063d e279 8f3d
00000100: c40c 993d a1b6 063d b503 6a3e 38ee a8bd
00000110: d53a 213e 9862 003c 6dfd f13d 24ce 973d
00000120: 299a e53c 6563 abbb 6214 623e 710b a43e
00000130: 906f e73d 3bc0 3dbd 9c8a edbc a845 32bd
00000140: 54ef 42bc 7090 cebd 7ae0 103e 0398 323e
-0.11169815 -0.014670757 -0.14471216 0.008478433 0.013270039 0.17575306 0.12063772 -0.048829786
0.25385958 -0.11128388 0.20486005 -0.070848405 -0.013716422 0.020254176 0.11778291 0.011453742
-0.020729147 0.074184395 0.08035216 0.027617546 0.13282199 -0.051485635 -0.15271717 -0.02151377
0.031871706 0.005312569 -0.04892645 0.07577744 -0.033768613 -0.08168406 0.5872356 0.06708648
0.36610308 0.20863745 -0.04447224 -0.040567793 0.2662619 0.031709634 0.073540874 -0.17306305
0.04282956 0.116902374 -0.043666855 0.40825632 0.01171718 0.05367893 -0.091936104 -0.15470831
0.013786263 0.2038809 -0.046117347 0.03054924 -0.024083674 -0.03505446 -0.0815329 -0.060295485
0.12736262 0.057642844 0.16417992 0.059205625 0.12449369 0.25221264 0.032739002 0.07005669
0.07473138 0.032889012 0.22852977 -0.082485616 0.15745099 0.007836007 0.11815915 0.07412365
0.02802761 -0.0052303546 0.22078088 0.3203998 0.11300576 -0.046325903 -0.028996758 -0.04352346
-0.011897881 -0.10086143 0.14148131 0.174408

fc3.weight f4 [10, 84]
00000000: 1315 69bc 1b9a 92bd 0b8c a1bd fc8f ce3d
00000010: 4380 2dbc 6d42 fdbd ec9f 183e f906 a53d
00000020: f621 45be af1e cfbd ad49 3bbc 144a a3bc
00000030: f524 143e f10b 053e dc39 2c3e 8c11 cc3b
00000040: 7439 7dbd 0997 843e eb17 193d 4af2 17bd
00000050: 40b8 cf3c c6e8 0cbc 6058 53be 5999 823e
00000060: b2f6 803e b591 cb3d b396 b23d fc0a 393e
00000070: 12c9 793c 1b4e 973d 9cd4 7cbe e7ba 3bbd
00000080: 8abf 31be ce5e 643e 9bb5 00be 1399 50bb
00000090: f455 35bc 013d 3cbd 7ed2 613e 6c08 3c3e
000000a0: 8703 7d3d 90c7 e8bd 3afd f3bd e5e2 8abe
000000b0: 73a8 883c 4e94 b83e 2a52 a83c 9e57 a93c
000000c0: 02ee abbd 3bc2 0a3e 027f 20bc 1519 27bd
000000d0: b508 8737 0545 0dbd f236 d3bd 45cf 353c
000000e0: 2288 543c 33c1 dd3d 899a 093e 3d78 8b3c
000000f0: 708d 3dbe 22ab 3dbe 1b6b 303e 5a6d 203e
00000100: 3e16 08bc 40e0 66be 28c5 a53d c6d2 01bc
00000110: 58d9 36be 3073 903c 10c6 10be 2a3f 083e
00000120: 6968 6c3e 103a b13d 5295 053a 1bf3 213e
00000130: c0a1 f7bd 60bd 893c 6164 e7bc 0060 a7ba
00000140: d4b1 73bc 6d79 1a3e 0a4a 313e d110 30bb
00000150: e5b7 8abd 0317 4d3e 56fb 7f3e e071 d0bd
00000160: fff9 053e ecbe 73be acbe 73be 2cfc 00be
00000170: a4a3 dcbd cfd6 863e 6f77 843d b495 a93d
00000180: 12d3 883c 5a09 0e3e 7517 c43c 0cff 9ebc
00000190: 9fd5 2abe 0489 833d 1f65 f53c 6701 c43d
000001a0: 907d 0c3d 043f 43bd 3d12 743d 8f9f 75be
000001b0: c171 b53e 3981 db3d f1fb 1d3e 547b 7f3c
000001c0: eab3 ec3d b78b 16bc 7f2d 46be 6453 063e
000001d0: a1d3 623d 60ab aebe 39cd 38bc 3c73 aa3d
000001e0: b28d f6bd 19c3 303d 9f2d 8bbe 1d36 9a3e
000001f0: 1e30 853e b56d d8bd 9f60 673d 688f 9abe
00000200: 37ce 813d c3e0 583d 37b2 a1bd fb89 0b3e
00000210: 6e43 a43e bacb c2bd a527 c7bd f048 4ebd
00000220: a563 8ebc 1dbf a5bd 4ac4 2d3d 87ab d73d
00000230: f101 f5bd 7176 353e 8dda e53c ef94 3cbc
00000240: 1494 e4bd 3608 2cbd d8eb 70be b3c1 563e
00000250: 037d f5bc b1ba 50be e86f 4ebe 1c50 39bd
00000260: 5565 af3c 6009 903d 65bf bc3c 7219 adbc
00000270: f38f bcbd ffe6 2c3e 7a59 babd 18f6 a0be
00000280: 3c69 e4bd b7b7 1cbe da9d 5abd df94 c7bb
00000290: 62ce 57bd 60cc 603e 73da ef3c 1763 623e
000002a0: 6e77 193e 39d0 abbd 1c9f 3dbc dbe5 febc
000002b0: 06d9 563d f710 613e d08f 04bd 2322 d6bd
000002c0: baba 6abd e038 a7bd c2ba 063e 5ff2 a4bd
000002d0: 119d 0b3e 2f84 4ebe 9ca3 103c 6ac4 ecbd
000002e0: 045a aabc 5579 a93d 4833 883d 6bea 313d
000002f0: b31f 473e 04b1 80bd 4e7c a2bc fdcd 04be
00000300: ffdf a7bd 1c72 78bd 25c7 34bd 59ae d5bd
00000310: 9579 21bb cc77 233e 2487 0b3e 011b b4bc
00000320: ec9b b23e 946c bd3e eccc f83c c874 8e3d
00000330: 5966 debc 82a5 61bd 23a8 393e 5855 ce3b
00000340: 3668 253d de4e 1abe 13d2 f0bd c294 d83d
00000350: 720c 0a3e e01f 723d bfd7 a3bd 87b2 a8bd
00000360: 0520 e9bd bde5 aebb 48bf b2bb f75d 22be
00000370: 2bc9 6d3d 9c35 bebd 8117 773d 943e a6bc
00000380: ed1e 5c3e f698 2ebe 6cd8 04be 28ff f9bd
00000390: 820f 3a3d 7c03 5ebe c729 663e 34d4 65bd
000003a0: 00d0 61bc 2ccb c63c 0182 233e 45ed f63d
000003b0: 3331 36bd 3733 053d ebee 51bc 4025 c53d
000003c0: 7e6b a33d 0c87 22bd 4954 8ebd c4bb 2a3e
000003d0: 525c f7bb 15a8 d9bd 294c c33d f5b6 d33d
000003e0: 4c12 183e b23c 163d 83d4 afbc a5e7 12be
000003f0: eedf 373d e4c2 94bd bde9 f33d 4b25 a7bd
-0.014226216 -0.071582995 -0.07888039 0.100860566 -0.010589662 -0.12366185 0.14904755 0.080579706
-0.19251236 -0.10113274 -0.01143114 -0.019932784 0.14467223 0.12992837 0.16818947 0.0062276777
-0.06182237 0.2589648 0.037376326 -0.0370963 0.025356412 -0.008600419 -0.20639181 0.2550762
0.25188214 0.09939901 0.0872015 0.18070596 0.015245693 0.07387944 -0.24690479 -0.04583254
-0.17358223 0.2230179 -0.12569277 -0.003182952 -0.011067856 -0.045956615 0.22052953 0.18362588
0.061770942 -0.113661885 -0.119135335 -0.27126232 0.016681885 0.36050647 0.020546991 0.020671662
-0.08395006 0.13550656 -0.009795906 -0.040795404 1.6097309e-05 -0.03448965 -0.10313214 0.01109678
0.01297191 0.108278655 0.13437857 0.017025108 -0.18510985 -0.18522313 0.17228357 0.15666714
-0.008306084 -0.22546482 0.08094245 -0.007923787 -0.17856348 0.01763305 -0.14138055 0.13305345
0.23086704 0.08653653 0.0005095798 0.15815394 -0.12091398 0.016813934 -0.028246107 -0.0012769699
-0.0148739405 0.15085383 0.173134 -0.0026865492 -0.06773356 0.2002831 0.24998221 -0.1017797
0.13083647 -0.238033 -0.23803204 -0.12596196 -0.107733995 0.2633576 0.06468093 0.08280507
0.016702209 0.13870755 0.023936966 -0.019408725 -0.16683052 0.06422618 0.029955445 0.0957058
0.034299433 -0.04766752 0.059587706 -0.23986648 0.3543835 0.10718007 0.1542814 0.015593369
0.115577534 -0.009188584 -0.19353293 0.13117748 0.055377606 -0.34115124 -0.011279398 0.083227605
-0.12038745 0.04315481 -0.27183244 0.3011941 0.26013273 -0.105678 0.05648863 -0.30187535
0.063381605 0.052948724 -0.0789532 0.13626854 0.32082695 -0.09511514 -0.097243585 -0.050362527
-0.017381499 -0.080930926 0.042423524 0.10530763 -0.11963261 0.17720963 0.028058315 -0.011510118
-0.11161056 -0.042000018 -0.23527467 0.20972328 -0.029966837 -0.20383717 -0.20159876 -0.045242414
0.021410624 0.07033038 0.023040483 -0.021130297 -0.09207144 0.16884993 -0.090990975 -0.31437755
-0.11152884 -0.15304457 -0.053373195 -0.006090745 -0.052687056 0.21952963 0.02927897 0.22108112
0.14986965 -0.08389325 -0.011573579 -0.031115463 0.052453063 0.21979128 -0.032363713 -0.1045573
-0.057306983 -0.08165145 0.1315718 -0.08054041 0.13634135 -0.20167612 0.00882807 -0.115609005
-0.020794876 0.082750954 0.06650406 0.04343645 0.19445686 -0.06283763 -0.019834664 -0.12969203
-0.08197021 -0.0606557 -0.04413523 -0.10433645 -0.002463912 0.15963668 0.13625771 -0.021985533
0.34884584 0.369969 0.030371152 0.06955868 -0.027148413 -0.05508948 0.18130545 0.006296795
0.040382586 -0.15069148 -0.117588185 0.10575248 0.1348131 0.05911243 -0.08000135 -0.082371764
-0.1138306 -0.0053374455 -0.0054549314 -0.15856157 0.058053177 -0.09287569 0.06032515 -0.020293511
0.21496172 -0.17050537 -0.12973183 -0.1220687 0.045424946 -0.21681017 0.22476874 -0.056110576
-0.013782501 0.024266802 0.15967561 0.12056974 -0.044480514 0.032519545 -0.01281331 0.096262455
0.07979487 -0.039679572 -0.0694967 0.1667319 -0.0075488472 -0.10627762 0.09536011 0.10337631
0.1485073 0.036678977 -0.021463638 -0.14346178 0.04489129 -0.07263735 0.119098164 -0.0816141

fc3.bias f4 [10]
00000000: 7cd0 94be d6b1 d1be f12c 383d a2d2 853e
00000010: c386 263f e187 ffbd 3002 6f3e 9aa7 72be
00000020: eee2 953e b53c 6ebe
-0.2906531 -0.4095599 0.044964734 0.26137263 0.6504938 -0.12477089 0.23340678 -0.23696747
0.29274696 -0.23265345
