model_1_vehicle_pth.pth (torch_old, 347153 bytes, 4 tensors)

weight f4 [16, 3, 10, 10]
00000000: 692c 0ebd 526e 513b d0d0 33bd 3b61 a3bc
00000010: c1e7 1b3c 23f1 97bb be9b c93c 1aee 0b3d
00000020: 2f4b e5bc 0eab 3abd 99d0 0dbd d106 693b
00000030: 325e 753d a84b 173d 3324 4fbd 9b69 e43c
00000040: 6f11 473c 3d1e 0cbc 0d17 2cbd bb07 b6ba
00000050: d0ab 7f3c ad65 5a3d 8bf9 403d 4d4e 6dbd
00000060: 1d17 b6bb 172f 173d a6de 0bbd d72a a2bc
00000070: 613c 50bd 9ce0 d43c 7970 d3bc 1aa1 adbc
00000080: 7d47 1a3d c940 53bd d3ee 083d 7e74 853c
00000090: ee3d 71bd 24cf cd3c cb25 ca3c 59e5 cb3c
000000a0: 5ff8 aa3c ee75 1b3c 032c b9bc 3c9b 53bd
000000b0: 9379 ec3c f576 40bd 2afa 32bd 3ef0 77bd
000000c0: 1a9f 81bd 165b 9e3c fb80 91bc e3cc 2ebd
000000d0: 1202 46bd 034a 243d a474 a03b 550e 3ebd
000000e0: 27b9 6bbd 71fe 80bd 046b 30bc 5319 393d
000000f0: c22c bf3c d571 2b3a 032b 5ebd 492d 063d
00000100: bb8b e6bb 515c f13b 69ec 333d efa2 91bb
00000110: 9934 223d e20f 4c3d c468 30bd 6740 3b3d
00000120: c87f 693a 8db0 31bd 354d 743c 556d 33bd
00000130: 8b7b cd3c 7c27 06bd 0c3b 693d bba1 a9bb
00000140: 1a30 e13c c063 84bd a785 e3bc 91b0 86bb
00000150: ef13 77bd bf74 323d 0f2c 6bbd 4981 033d
00000160: 045f 733b 5842 983b 149b 0ebd 089b 583d
00000170: 1836 233d c438 1dbd fcd4 493d f258 4fbd
00000180: 4327 d93b 1ea2 4d3d eadb 523d ddb1 e63b
00000190: 4504 74bb e6cd 9ebc 6498 223d 924a d2bc
000001a0: d1ac 263d 4f9c f43c 1f63 2bbc 8e38 2b3c
000001b0: a0da 0abc 9519 193d ba58 393d cf2e 95bb
000001c0: 7154 3c3d 20fa a33a 324d 0fbd c1cd 543c
000001d0: a692 e6bc 0bec 5cbc eb55 03bd 00a6 3dbd
000001e0: 7d45 1e3d 80fc e9bc d573 923b 3955 d23c
000001f0: e926 03bd a594 f23c 1fc4 cfbc b549 c4bc
00000200: e3a9 6dbc 00d6 5c3d 5ac1 3d3d 9dad 053c
00000210: f197 fcbc cfd7 cc3c 1517 85bc f880 8e3b
00000220: 6fee 66bd 2eb0 1abd 50ff 3ebd 96ba bd3c
00000230: 97c7 ba3c aca5 283d fc9e 603d 333a 57bd
00000240: c1bb 1f3d 67bd 5dbd d192 3cbb 3fc8 70bc
00000250: b215 d5bc d6f9 583d a18b 9dbc bb04 29bd
00000260: 204c 563b 87dc 66bd 9e96 debb 8933 8fbc
00000270: 9a5d 88bc 36af 243c ecdb c53c 4333 f6bc
00000280: a2df 7dbc f4fc 4abd 075b 193d b9eb 933c
00000290: 6504 24bd 0c0f 16bd 0bf4 bd3c 343f 6b3d
000002a0: 5239 b8bc 8a9b 673d 40d0 e53c 30ec 55bb
000002b0: 46f7 22bd 1341 633d 9319 d73c 1393 02bc
000002c0: d44f fa3c 0aa7 f7bc 76d2 71bb 54fa aebc
000002d0: 6f7a 6cbd 6b45 4e3d cf4d e2bc a785 18bd
000002e0: 138e a4bc 480e 213c fa98 123d 1cc3 3b3d
000002f0: b08d 4b3d 5b62 71bb e5e4 883c 5852 f13b
00000300: 58fe efbc 7c1b b5bc ecd3 03bd 4dbe 473d
00000310: 62ff 2bbc 10c2 42bd 2479 73bc 5f85 1b3d
00000320: 63f9 b13c 33d5 44bd b669 6bbc ffc7 043d
00000330: 62a5 2b3d ca84 81bc b24b 8c3c 2916 db3c
00000340: a46f 883c eeb3 123d ad56 2dbc 6f0f b4bc
00000350: 66db 593d 95ca 523c 2ac0 143c a39e 3abd
00000360: e05e 58bd 2fce 38bd 7870 c33c d68e 38bd
00000370: d5f1 0c3d bd06 ac3c b261 c93c afe5 0cbc
00000380: 0a12 e0bc 6b07 6b3d 4d83 48bd b903 9cbc
00000390: e977 303d fd7c 003d 82c5 0f3d 093c 383d
000003a0: 856b 6ebb 5f23 c93c 6536 51bd 45be aa3b
000003b0: 0ccb ea3b a8c0 213c 8bed f53c 94b4 7abc
000003c0: 86a2 b9bc ef54 12bd 593b ff3c 5784 36bd
000003d0: e944 2d3d b86c 6ebc f5cd 08bb 6ac2 95bb
000003e0: 1a07 163d b634 8cbc 10c4 8dbc 8364 34bc
000003f0: 5b3d 0c3d 7520 b43c 1ccb 04bc 89d9 f8bc
-0.03471032 0.0031956625 -0.04390031 -0.019943824 0.009515704 -0.0046369 0.024610396 0.03416262
-0.027989952 -0.045573287 -0.034622762 0.0035557041 0.059904285 0.036937386 -0.05057163 0.027882388
0.012150153 -0.008552131 -0.04201417 -0.0013887802 0.015604928 0.05331962 0.047112983 -0.057936
-0.0055569545 0.036910143 -0.03414788 -0.019795818 -0.05083883 0.025986008 -0.025810467 -0.021194983
0.037665833 -0.051575456 0.033430886 0.0162909 -0.05889695 0.025123186 0.024676224 0.024889635
0.020870386 0.009488566 -0.022603994 -0.051661715 0.028866565 -0.046988446 -0.043695606 -0.060531847
-0.06329174 0.019330543 -0.017761698 -0.042675864 -0.04834182 0.040109646 0.004896717 -0.046400387
-0.057549622 -0.06298531 -0.010767702 0.045190167 0.023336772 0.00065400946 -0.054240238 0.03275803
-0.0070357 0.0073657413 0.04392663 -0.004444472 0.039600942 0.049819835 -0.043068662 0.045715716
0.00089072855 -0.043381263 0.014910986 -0.04380544 0.025083324 -0.0327525 0.056941077 -0.0051767505
0.027488757 -0.06464338 -0.027773691 -0.004110404 -0.060321745 0.04356837 -0.057415064 0.032105718
0.003713549 0.0046465807 -0.034815863 0.052882224 0.03984651 -0.038384214 0.049275383 -0.050621934
0.006626995 0.050203435 0.051479258 0.007040246 -0.003723399 -0.01938529 0.039696112 -0.025670324
0.040692154 0.02985969 -0.010460644 0.010450495 -0.008474976 0.037377913 0.045250632 -0.004552699
0.045978967 0.0012510456 -0.03498573 0.012988509 -0.0281461 -0.013484011 -0.03206436 -0.046300888
0.038640488 -0.028562784 0.0044693747 0.025675403 -0.03201953 0.029611895 -0.025362073 -0.023960928
-0.014505836 0.053915024 0.046326973 0.008159068 -0.03083417 0.02500525 -0.016246358 0.0043488704
-0.05637973 -0.037765674 -0.046630204 0.02316026 0.02280025 0.041173622 0.05483912 -0.052545737
0.038997415 -0.054135706 -0.0028774033 -0.01469618 -0.026011322 0.052972637 -0.01923162 -0.041264277
0.0032699183 -0.056362655 -0.0067928573 -0.017480629 -0.016646195 0.010051539 0.024152718 -0.03005374
-0.015495213 -0.04955764 0.037440326 0.018056737 -0.040043253 -0.036635444 0.023187658 0.057433322
-0.02248827 0.056544818 0.028053403 -0.0032642 -0.0397866 0.05548198 0.026257312 -0.007969636
0.030555643 -0.030231018 -0.0036899126 -0.0213596 -0.05773395 0.05035917 -0.027624993 -0.037236836
-0.020087278 0.009830065 0.03579042 0.045840368 0.04969567 -0.0036832306 0.016710708 0.0073645525
-0.029296085 -0.022107832 -0.032184526 0.04876547 -0.0104979 -0.047548354 -0.014860425 0.03796899
0.021725362 -0.048054885 -0.014368465 0.032417294 0.04190577 -0.01581039 0.017125938 0.026743965
0.016654797 0.035816126 -0.010579747 -0.021980016 0.05318775 0.012865682 0.009079019 -0.045561444
-0.052824855 -0.045118507 0.02385734 -0.045058094 0.034410316 0.020999307 0.024582718 -0.008599683
-0.027352352 0.05738012 -0.048953343 -0.019044744 0.043083105 0.031369198 0.035100468 0.04497913
-0.0036380005 0.024552999 -0.051077265 0.00521067 0.0071653184 0.009872593 0.030020496 -0.015301842
-0.022660505 -0.03572553 0.031156229 -0.044559803 0.042302046 -0.014552288 -0.0020874713 -0.004570295
0.036627866 -0.017114978 -0.017305404 -0.011010292 0.0342382 0.021988133 -0.008105066 -0.030377166

bias f4 [16]
00000000: fef3 19bd 0c16 2bbd 74de 9bbb 827b adbc
00000010: 2883 4fbd ac6e 153d 198a 173d 919f e2bc
00000020: 552b e13c 6d18 363d 4ef1 af3c 0178 a7bc
00000030: ca62 20bd 71d1 09bd 533e 71bd edc7 013d
-0.037586205 -0.041769072 -0.004756743 -0.021177057 -0.05066219 0.036482498 0.036996935 -0.027663978
0.027486483 0.044456888 0.021477368 -0.020442965 -0.039156713 -0.033647005 -0.058897328 0.031684805

weight f4 [15, 5184]
00000000: 12c0 21bc ca4b 903b f436 c9bb 9891 23bb
00000010: a9bb 4f3c bf61 52bc a094 76bb d9ad 953b
00000020: 41a0 bfbb 6bf1 54b8 9d1c 5cbc 25c8 b0ba
00000030: b223 403c 5950 1fbb 7fea 283b 016b 6cbb
00000040: c552 533c 16dc 653b 570f cf3a 7e2e 933b
00000050: 1dcb c938 042c 00bc 43de 063c 2048 d63b
00000060: be18 18bb ef03 4dbc c6bf c3bb 049b 6139
00000070: e51c fdbb f99f ab3b 6002 95bb efa9 ea3b
00000080: c6b4 8c3b c2ae 933c 8452 c7aa 4dab 33bc
00000090: c7d5 c9ba b8bd 29bc ebaf 3fbc 50c6 f339
000000a0: 2be4 01bc 50cb 0e3c ccf8 163c fcc4 4dbc
000000b0: a192 253c fd97 c3bb d56b 7d39 3fd0 b8bb
000000c0: d33d 4a3c 0a53 8e3c 4bdf 49bb ca09 873c
000000d0: 40b2 6439 5522 20bc babb 48bb 54ad 62bb
000000e0: d38d 8cbc 5a0a 313c 4d7b adbb 3fd6 0bba
000000f0: 1fa1 f43a 76b1 be3b 58c4 6b39 30e1 ed3b
00000100: 7bf9 583c 16c3 273b cd1f e43b 227d 7dbb
00000110: aae4 60bb 5c0d f7bb 043d 193b 8923 873a
00000120: 4f58 a2bb c9b9 f5ba 932d e03b ed0d 003c
00000130: 020e 413c e983 d23b 26f5 b4bb 59c5 1b3c
00000140: 4bf8 bcbb 065f 70bb 22f4 ba3a f72d 50b8
00000150: 2b91 a03b 218b 78bb d7d2 29bc 174d a9bb
00000160: e95b 223c b70d 80ba 8080 c63b c835 53bc
00000170: 2933 9f3a a3c9 813c 60e7 4e3c 8f1f 50bb
00000180: 5da2 e33b 9b8a 353b da6e 043b cd7f 98bc
00000190: 3ffd 4dbc 33bb 07bd aa3a 3d3c adcf 0ebc
000001a0: 660e 563c b72c c53b 7e42 dd39 4d15 413c
000001b0: 1407 273c 8d94 ed3b 137e 1a3c 06cf dbba
000001c0: b4d7 81bb ecd8 ab3b e05f 57bc ff06 4fbc
000001d0: be70 16b8 2f88 d2ba fa7e a1ba 2cea d6b9
000001e0: d0ac 4cbc b40b 7f3b 009a 3ebb c1f9 96bb
000001f0: f483 5f3c 6b02 53bb 90d4 6b3c 4133 0ebc
00000200: d425 ccba 42c3 3b3c 01ed 46bc 429f 5e3c
00000210: 77c2 b53b 3d38 04bc 1c7a 053c 3d97 f1ba
00000220: 6b63 b7b6 3021 3bba ad0c 1fbc 04da 71bc
00000230: 100f 46bc 0195 65b9 6b63 98bb 8983 b5bb
00000240: 3f54 59bc df95 89bb 4253 703c c1c7 d1bb
00000250: 1856 cf3b b1bc ee3b d2a5 f0b9 b8db 70b9
00000260: c12a 3a3a 1926 a93a 8f8a 58bc cc93 efbb
00000270: a8ca b9bb a01e a7bb 201d 453c cbf2 1dbb
00000280: 33ed 8e3a 6478 9dbb 68dd 543c ba82 683c
00000290: d939 87bb 73d0 cabb 1f19 a73b 150f ea3a
000002a0: 889b 0c3c 3fc8 71ba 2f43 6c3b 68f6 2b39
000002b0: 1afd 16bc 7e45 b2bb b0a9 003c 177c f938
000002c0: fb67 1f3c 855f 943b ab60 2abc 547f 033c
000002d0: 29de 7d3c ac24 063b 3375 ba3b 3771 413c
000002e0: 590a 9ebb 8946 3d3b 6ecf bfbb 4034 e938
000002f0: ad18 2c3c 7bf4 36bb 1167 333c 421b 7dbc
00000300: 663f fb3a 9013 1fbc d680 9b3b a2ae fcbb
00000310: ff35 063c d26a 88bb 0e3f 433b 1af1 5d3b
00000320: 4d39 d73b 0533 893b 354a bdbc 9571 82bb
00000330: 830d e8bb 3e3e 3bbc 1f69 723c 6568 883c
00000340: c820 4dbc 9e37 c1bc d3b6 b73b 9143 263c
00000350: ae08 a0bb 3c7b 413c a1b4 92bc ace3 39bc
00000360: 5697 1a3b af74 58bc 7c6a 83bb 960f 813b
00000370: 7d0d dc3b 8cfb 9bbb 766b 123c f125 4cbc
00000380: 59eb e7bb a693 ac3b b8d0 1f3b 5d76 41bc
00000390: e449 1f3b 1e6c 8bbb 9c34 ec3b 71ed 2dbc
000003a0: 59d8 bb3b b7bf 7ebb 8404 983b e785 8fbb
000003b0: 430e 1a3c cf2f 1dbc beab 97bc bb58 69bc
000003c0: 97a3 88bb ff11 1a3c a67e a53b 0810 2bbc
000003d0: 2524 89bb 9787 24bb b554 943b a54f 353c
000003e0: 7f6b 4cbb b276 253c 7903 553c 1242 703c
000003f0: 35f7 fbba 24e4 e53b b54e 8cbc 64b7 6b3b
-0.009872453 0.004403566 -0.006140584 -0.0024958607 0.012679019 -0.012840687 -0.0037625208 0.0045678434
-0.005847961 -5.0769577e-05 -0.013434556 -0.0013487382 0.01172726 -0.0024309366 0.0025774536 -0.0036074521
0.012898152 0.0035073808 0.0015797418 0.0044916263 9.62226e-05 -0.007822994 0.008231702 0.0065393597
-0.0023208107 -0.012513145 -0.005973789 0.0002151542 -0.0077243918 0.005237576 -0.0045474023 0.007161371
0.004294011 0.018027667 -3.5406758e-13 -0.010966134 -0.0015398794 -0.010360174 -0.011699657 0.00046496326
-0.007927935 0.008715466 0.009214591 -0.012559172 0.01010576 -0.005969046 0.00024168131 -0.0056400592
0.012343842 0.01737358 -0.003080326 0.01648416 0.00021810178 -0.00977381 -0.0030629472 -0.0034588175
-0.01715747 0.010805691 -0.0052942396 -0.00053343544 0.001866374 0.005819495 0.0002248449 0.0072595105
0.0132430745 0.0025598458 0.0069617988 -0.0038679321 -0.0034315982 -0.0075394344 0.0023382315 0.0010310273
-0.004954375 -0.0018747385 0.0068413704 0.00781582 0.011783125 0.0064244163 -0.005522388 0.009507501
-0.0057669035 -0.0036677732 0.0014263431 -4.9633873e-05 0.004900118 -0.0037924724 -0.01036521 -0.0051666605
0.009909608 -0.0009769712 0.006057799 -0.01289124 0.0012145984 0.015843218 0.012628406 -0.0031757092
0.0069468454 0.0027701024 0.0020207674 -0.018615628 -0.012572586 -0.03313751 0.011549631 -0.008716506
0.013064956 0.0060172933 0.00042201945 0.011784864 0.010194559 0.0072503746 0.0094294725 -0.0016770072
-0.0039624814 0.005244365 -0.013145417 -0.012635945 -3.5867786e-05 -0.0016062314 -0.0012321167 -0.00040991732
-0.012492374 0.0038916888 -0.002908349 -0.0046074097 0.0136423 -0.0032197486 0.014393941 -0.008679212
-0.0015575239 0.011460127 -0.012141467 0.013587775 0.0055468637 -0.008070049 0.008146789 -0.0018431913
-5.4653988e-06 -0.0007138429 -0.009707612 -0.014761452 -0.012088552 -0.0002189465 -0.0046505234 -0.005539362
-0.013264715 -0.004198774 0.014668288 -0.0064019863 0.006327402 0.0072856774 -0.00045899913 -0.00022970035
0.0007101708 0.0012905031 -0.013216629 -0.00731132 -0.0056699105 -0.0051000863 0.01203087 -0.0024101015
0.0010904431 -0.0048056114 0.0129922405 0.014191324 -0.004126769 -0.0061894 0.00509943 0.0017857278
0.008582003 -0.00092232594 0.0036050787 0.00016399624 -0.009215618 -0.005440413 0.007852957 0.00011896359
0.009729381 0.0045279884 -0.010399024 0.008025963 0.015494862 0.0020468635 0.0056902408 0.011806778
-0.004823011 0.0028881154 -0.005853585 0.00011120038 0.01050393 -0.0027916718 0.010949866 -0.015448393
0.0019168674 -0.009709254 0.004745583 -0.0077112475 0.008191585 -0.0041631246 0.0029792222 0.0033865632
0.00656811 0.00418699 -0.023106674 -0.003980825 -0.007081689 -0.011428414 0.014795571 0.016651342
-0.012520023 -0.02358609 0.005606511 0.010147945 -0.004883847 0.0118091665 -0.017908396 -0.011345785
0.0023588738 -0.013211413 -0.0040104967 0.0039386256 0.006715475 -0.0047602113 0.0089367535 -0.012460218
-0.007077616 0.0052666245 0.002438588 -0.011808005 0.0024305517 -0.004254832 0.00720842 -0.0106156925
0.0057325778 -0.0038871595 0.00463921 -0.004379976 0.009402814 -0.009593918 -0.01851451 -0.014242346
-0.004169892 0.009403705 0.005050498 -0.010440834 -0.004185217 -0.0025105232 0.0045266994 0.011066352
-0.0031192002 0.0100991 0.013001316 0.01466419 -0.0019223454 0.007015722 -0.017127374 0.0035967464

bias f4 [15]
00000000: c105 153c 4965 0abc ee0a e7bb e28c ac3b
00000010: a482 34ba 6ea3 ed3b 9244 bdbb 40ff 84bb
00000020: d379 2a3c ba46 2eba 7b3c 2f3c c192 1f3b
00000030: fc93 22bc 65d7 fe3a ea66 ff3b
0.00909561 -0.008447 -0.0070508635 0.005265818 -0.0006885922 0.0072521484 -0.0057759965 -0.0040587485
0.010405022 -0.00066481123 0.010695572 0.0024348947 -0.009922978 0.0019442855 0.0077942507
